model/keypoint_classifier/keypoint_classifier.tflite (tflite, 7020 bytes, 6 tensors)

arith.constant f4 [15, 10]
00000000: c0f9 abbf 1aac a83e e554 93bf 88a8 29bf
00000010: b849 e53e 6b1e 69bf 25f8 d93e e5b7 183e
00000020: 0855 093f b701 29bf e82c 82bf a9d3 babe
00000030: 57b6 c1be 3a16 01bf 192a 8d3e 5081 8cbf
00000040: ddf6 07bf 8f00 8c3e ee48 3e3f bb43 38be
00000050: 9a5c e8be 073d b03e f9bd 35bf 9a62 60bd
00000060: 85f6 983e 8f8a 65bf 2e47 6cbf 550f 28bf
00000070: cb94 843d 8dd8 e43e 11b1 22bf aba9 82bf
00000080: 59bc e1be 4ec8 ce3e 224d 133f e968 bdbe
00000090: f8e1 bfbe c0a4 fa3e 6921 5abf b35c 333e
000000a0: 999a e2be 267e 01bf bb68 37bf d4eb c43e
000000b0: 4797 873e 78be 20bf cf5f eabe e664 acbd
000000c0: f958 b0bf 5f42 453f 0c2f 833e cb3f 18be
000000d0: 789d 193f b687 193f f3e8 14be a887 53bc
000000e0: d927 263f 1ed7 94be 407c e0be 731a acbf
000000f0: f44b 44be 8e1d ad3e 5805 453f 1b3d e1be
00000100: 5cb7 20be a2eb 6abe 893b 8fbe 5f16 c7bf
00000110: 1b5c 3fbf 31c6 dc3e 9c37 dabe 4169 0fbf
00000120: 7da4 103f dc6d efbe 487e be3e 893e 213f
00000130: 6560 6dbe c1c1 40bf 59e0 0cbf 5447 70be
00000140: 277d bc3e 87d9 253f 9cbe bcbe fdca 62bf
00000150: d6cf f2be 4da7 a3be accb 1c3e 60a2 98bf
00000160: a7af ca3e 7480 92bf 57dc fe3e 99d9 54be
00000170: ce88 88bc f81a 2dbd 6963 75be e263 5f3e
00000180: c708 103f 45cf 80bf 3a2d 93bf a805 0eba
00000190: 4d40 50bf 16b1 4ebf 1757 0abd bb04 afbf
000001a0: 61da d9bf f527 183f 6fe1 f0be 8020 353f
000001b0: 6762 90bd e088 093e 0f2f f9be 485b 833f
000001c0: d829 0bbf 617e edbe d112 c8bd f1f5 1f3f
000001d0: da8d d13e b3a6 0f3d 2432 20bf b139 92be
000001e0: f9d2 2abf ec4d 0fbf be29 8c3e 8353 44be
000001f0: 4777 c93e ccb0 4b3f 8d45 c93e d1a4 1bbf
00000200: 2b97 bcbe f27e aabe 719a 49bf d6e4 42bf
00000210: 60c3 253e 137b 83be c8da 2d3d 3552 50bf
00000220: 9a64 053e 5578 0f3f 53b7 b1be b59b 4f3c
00000230: 39a9 4a3f 16b0 53bc 08bb 393e 90a1 b4bf
00000240: 30ea 5dbf fdd4 14bf 8d29 3fbf 70c6 a4bf
00000250: 1393 b33e 3f12 8e3d
-1.3435593 0.32943803 -1.1510283 -0.66272783 0.44782805 -0.9106204 0.42572132 0.149139
0.5364537 -0.6601824 -1.0169954 -0.3648961 -0.37834427 -0.5042454 0.2757118 -1.0976963
-0.5311106 0.27344176 0.7433003 -0.17994587 -0.4538315 0.3442156 -0.70993 -0.054781534
0.2987558 -0.8966455 -0.9229611 -0.65648395 0.064736925 0.44696465 -0.6355143 -1.0208029
-0.4408901 0.40387195 0.5753957 -0.36994103 -0.37477088 0.4895382 -0.8520723 0.1751583
-0.44258574 -0.5058311 -0.7164418 0.38461173 0.26482603 -0.6279063 -0.4577622 -0.08417682
-1.3777152 0.770544 0.2562183 -0.14868085 0.60005903 0.59972703 -0.14541988 -0.012910761
0.6490455 -0.2907037 -0.43844795 -1.3445572 -0.19169599 0.3381161 0.7696128 -0.43991932
-0.15694946 -0.2294145 -0.2797511 -1.5553702 -0.74749917 0.43119958 -0.42620552 -0.5601998
0.5650099 -0.46763504 0.3720572 0.62986046 -0.23181303 -0.75295645 -0.5502983 -0.2346471
0.36814234 0.64785045 -0.36864173 -0.88590986 -0.4742419 -0.31963578 0.1531207 -1.1924553
0.39587137 -1.1445451 0.4977748 -0.20786132 -0.016666796 -0.042262048 -0.23963703 0.21815446
0.56263393 -1.0063254 -1.1498177 -0.0005417713 -0.81348115 -0.8073896 -0.03377446 -1.3673319
-1.7019769 0.5943597 -0.47046992 0.70752716 -0.07050019 0.1343112 -0.48668715 1.0262232
-0.54360723 -0.46385482 -0.09769214 0.6248465 0.40928537 0.035071086 -0.6257651 -0.2855964
-0.6672817 -0.55978274 0.27375597 -0.19172482 0.39348814 0.79566646 0.39310876 -0.60798365
-0.36834082 -0.33299977 -0.78751284 -0.76130426 0.16187811 -0.25679836 0.042444974 -0.8137544
0.13026658 0.5604299 -0.34710178 0.012671401 0.79164463 -0.0129204 0.18137753 -1.4111805
-0.86685467 -0.58137494 -0.74672776 -1.2873058 0.35073146 0.06937074

arith.constant1 f4 [10, 20]
00000000: cd87 8abe c0de 733e b194 e33e 7de4 d2be
00000010: 699f 613f 36a6 5bbf 421d 6e3e 7d87 c7be
00000020: a024 8cbf f85e 39bf c9fb 89be 3aaa 25bf
00000030: 0294 3b3f a34f 173f f4a9 0cbf ec39 5b3f
00000040: 2ea0 eabe a23b b03e ba43 093f 0458 533e
00000050: b152 51bf 2b63 83be d0f4 13bf c2a4 883e
00000060: 979d 283f 8c96 633e 04f8 c13f 4c20 5abf
00000070: 0552 3b3f cb97 743d b6fb d7bd a242 013f
00000080: 9c43 333f 2eb7 5f3f de91 8bbd 4e81 6f3f
00000090: 5700 453f 6a4c 1ebf 4bc3 033f 371f cfbe
000000a0: cecc 733f a680 ac3f 4b13 3e3f 455f 87be
000000b0: 7916 d43e daff 883e c7e7 04bf 385a 453e
000000c0: 39ea 8dbf d490 173e 2d93 553f 12bc 573e
000000d0: 163e fa3e 9803 adbe 3406 933e b236 d93e
000000e0: 8a6d d53d 6fdc aa3e f140 3a3f 5a4a d03f
000000f0: 1012 423e bce4 d23d 65bd 013f 8a2d 153e
00000100: 6055 b23e aed8 733e 9fe7 68bd daf7 b93d
00000110: b24e 553e ebc7 77bf e507 f83e 1b49 413e
00000120: c123 8c3e e7ea c53c 01cf 07bf d039 8d3e
00000130: dfaf a13e 6c74 9a3e fc95 66bf 6a15 fa3e
00000140: 0774 9b3e 9579 313c 5da5 693f 2e5b 07bc
00000150: d6af 3a3e 344d 433f 3c36 eabe 3f38 873e
00000160: c90c 1f3f d316 5d3f a30b ab3f 8bc5 2b3f
00000170: 9f3a ef3e 5ef0 87be 86a0 67bd 0f69 8bbe
00000180: db9e 58bf 3760 173f 4284 363e a9ba e83d
00000190: 839d 283f 4558 98bd 149a 213f 12c6 913f
000001a0: 3783 abbe e145 0abd 35a3 aa3e 5de7 683f
000001b0: a062 05bf c8b2 d5bd c751 de3e 7a0b 20bf
000001c0: 37fb 493f 271f 8fbf f5e9 b63f 9cd0 bc3d
000001d0: 683a 003e 28fc 373f b299 1c3f 79ae b0be
000001e0: a68b 8b3d 1977 9ebf 55ce 453f c9d3 b83e
000001f0: c6bf 123f b144 f73e fdbe afbd 0826 88be
00000200: 6dae f03c 711e f63d ea49 313f 11b0 2f3e
00000210: 216f 913d e53d 17be 03eb e6be 655a b73e
00000220: afab 043f 9e81 c0bd 2f65 103f e3bc 4e3f
00000230: 45b5 a83e 84ea 353f fb10 10bf fc03 1d3f
00000240: 58da 1bbf d729 a03e abde 173e e1a4 9c3d
00000250: 1519 363e 9c71 353e ff56 913f 7bf0 fa3e
00000260: 2778 94bf 91ee 453e cc28 913d 4c27 d0be
00000270: a002 433f 6ad9 89bc 9676 58bf 54a5 fe3d
00000280: dfc8 79bf 0ba8 4f3f 1274 bebe cf2e 773f
00000290: d764 e33d d7cf 393e 9dbc 353e 2c88 27bf
000002a0: 30a2 51be d759 73bd 087e 1c3f 3a22 953d
000002b0: 2218 9d3a 74ca 993d e96a 69bf c0d5 c0bd
000002c0: e838 2abf 3508 f33c 80b1 d1bc b317 45bf
000002d0: 54a5 5c3f e38d ca3f 9a99 93bd 41c6 83bf
000002e0: 9466 963e 9a69 443f 8477 d5bd f7e9 823f
000002f0: 63d5 273f 261d 1b3f f61f 11be dd50 3f3f
00000300: 0165 dc3c a221 a03f 344d 07be 5efd 3e3e
00000310: 6d5a 193e 76a1 8c3f ce3f 24bd dbe4 833e
-0.27056733 0.23815441 0.4444938 -0.41189948 0.88133866 -0.8580049 0.23253348 -0.38970557
-1.0948677 -0.72410536 -0.2694991 -0.6471287 0.73272717 0.5910589 -0.5494683 0.85635257
-0.45825332 0.34420496 0.5361897 0.20639044 -0.817668 -0.25661597 -0.5779543 0.266882
0.65865463 0.22225398 1.5153813 -0.8520553 0.73172027 0.059715074 -0.10546057 0.504923
0.7002504 0.87388885 -0.06814931 0.9355668 0.76953644 -0.6183535 0.5146987 -0.40453503
0.9523438 1.347676 0.7424819 -0.26439872 0.41423395 0.267577 -0.51916164 0.19272697
-1.1087104 0.14801341 0.834277 0.21067837 0.48875493 -0.33791804 0.2871567 0.42424542
0.104212835 0.33371302 0.7275534 1.627269 0.18952203 0.10297534 0.5067962 0.14568153
0.3483076 0.23813125 -0.056861516 0.09080477 0.20830801 -0.96789426 0.48443523 0.18875544
0.27371028 0.024159862 -0.5305024 0.2758317 0.31579491 0.30166948 -0.9007261 0.48844463
0.3036196 0.01083221 0.9126795 -0.008261485 0.18231139 0.7628968 -0.45744503 0.264101
0.62128884 0.8636295 1.3362926 0.670983 0.46724412 -0.26550573 -0.05654957 -0.2722859
-0.84617394 0.5913119 0.1782389 0.113637276 0.65865344 -0.07438711 0.6312573 1.1388571
-0.33498546 -0.033758048 0.33327642 0.9097803 -0.52103615 -0.104344904 0.43421766 -0.6251751
0.7889895 -1.1181382 1.4290148 0.092194766 0.1252228 0.71869135 0.6117202 -0.34508112
0.06813745 -1.2380096 0.7726796 0.3609908 0.57323873 0.48294595 -0.0858135 -0.26591516
0.029380048 0.12017525 0.6925341 0.17157008 0.07101274 -0.14769705 -0.45101175 0.35811153
0.5182447 -0.093997225 0.56404394 0.8075697 0.32950798 0.7106097 -0.5627591 0.61334205
-0.6088004 0.3128192 0.14831035 0.07648636 0.17783006 0.1771912 1.1354674 0.49011597
-1.1599168 0.19329287 0.070878595 -0.4065498 0.7617588 -0.016827304 -0.8455595 0.124338776
-0.9757213 0.8111579 -0.3719793 0.965558 0.11103218 0.18145691 0.17747732 -0.65442157
-0.20472026 -0.05941185 0.6112981 0.07281919 0.0011985342 0.07509318 -0.91178757 -0.094157696
-0.6649308 0.029667 -0.025597334 -0.7698929 0.8618977 1.582455 -0.072070315 -1.0294877
0.29375136 0.76723635 -0.104231864 1.022765 0.6555998 0.6059135 -0.14172348 0.7473276
0.026903631 1.2510264 -0.13213044 0.1865134 0.14975901 1.0986774 -0.04009991 0.2576054

arith.constant2 f4 [15]
00000000: 6b6e 343f 9d95 173f e8ca d0bd 0311 56be
00000010: 76aa 9abe b70a 89bf 8156 bcbe 9abf 04bf
00000020: b304 053f 5e89 08be 5786 823f 9bf2 42bf
00000030: 01a0 6fbd 2f62 113e cb57 133f
0.70480984 0.59212667 -0.10194951 -0.20904927 -0.30208176 -1.0706395 -0.36784747 -0.5185486
0.51960295 -0.13333651 1.0197247 -0.76151437 -0.0585022 0.1419761 0.57555836

sequential_1/dense_1_2/Add/ReadVariableOp f4 [10]
00000000: 5ef3 863f 3355 233f 6450 c6bd f081 cebc
00000010: b413 04be 6f5f ac3c 0b49 87bd 876e 743f
00000020: 2c29 c43f 2530 ec3e
1.054302 0.6380188 -0.09683302 -0.025208443 -0.12898141 0.0210416 -0.06605729 0.9548115
1.5325065 0.4613048

sequential_1/dense_1/Add/ReadVariableOp f4 [20]
00000000: a4a0 ddbe da0a c43c 8585 9fbf c0a3 153f
00000010: 00ea a63d fa26 c3bd 5b51 493f 37f1 febe
00000020: 963d 8ebc 2370 c0be 8352 0dbf 61da 0e3e
00000030: dc32 eabe 9721 933e 2362 0a3e 8ddc e73e
00000040: f3b5 563d a9d7 38bf 296f 22bf cc4d 84bf
-0.43286622 0.023930956 -1.2462622 0.5845299 0.08150101 -0.095289186 0.78639764 -0.49793407
-0.01736335 -0.37585554 -0.5520403 0.13950492 -0.45741928 0.28736565 0.13513999 0.45285454
0.052419614 -0.7220407 -0.63450867 -1.0336242

sequential_1/dense_1/MatMul f4 [20, 42]
00000000: 6026 e73c 60ab 1d3c eb0c 84be 66c5 213e
00000010: 80e5 6cbe 64c1 7c3e 8757 1abd 467b 713e
00000020: b539 2a3e 913b 973e 1f27 b83d 0a2e 9d3d
00000030: ed68 623d 4524 d93d 55d3 ebbd 8ad5 763d
00000040: fe86 87be 2f92 8f3d af4c d63e f38c f23d
00000050: 2ce8 6f3e 5a3f f33c dcb2 7c3c 225d c93d
00000060: 5e8e 69be bb6f 62bc 9704 d63e 28aa ca3d
00000070: 5b60 983d 39b6 733d 27df d8be f8ee 3bbe
00000080: b346 3bbf 9844 90bf 190e 303e 48d3 0c3e
00000090: 4049 893c d8d4 8f3d 6140 cfbe 6a6b c6bd
000000a0: a13c 47bf 9ec3 c3be 5e92 3c3e 28e5 d0bd
000000b0: 10b6 683d c431 b9be f7d8 edbc 4274 383e
000000c0: 9536 a4bd 206e 803e 0942 4abe 5927 9c3e
000000d0: 2091 073d 16fd 563e 5799 113d b914 203e
000000e0: 3c13 1d3d bbb3 a13d 60a9 b4bd 2b1b 2c3d
000000f0: 02f7 20bd 4fb7 513e b37d 303d b9a2 223e
00000100: 3311 68be cf59 033d 29b7 9dbe aa74 e4bf
00000110: eccd 63be 6ff4 873e 90e5 eebc ffb6 333e
00000120: 5061 fabb d694 063e bae4 943c be03 243d
00000130: 39ae d4bc 7df0 883e ef48 053d 740b 433e
00000140: 1b54 0b3e 12a4 413e c5dc 1e3e bc91 093e
00000150: 28d7 17bd 612e 38be df5a 7bbf 653b 313f
00000160: f284 a4be 9fdd 12bd 270f 4cbe 45ff d1be
00000170: b6fc 6fbe 1024 11bf cdf7 a03d d1ed 30be
00000180: 0e1b 74bd 5e81 663d 95c7 893d 6376 693e
00000190: 40f6 f53d 3afa 953e b301 383e e14f 24be
000001a0: ed88 92bd 69c9 0abe 0ea0 f4bc dd67 cb3d
000001b0: 3c89 813c 3418 d23d 80e7 ae3e e5b5 96be
000001c0: 2e9a d8bd 6a8c 85be 340b 73be 65a8 48bd
000001d0: c225 90be 638f 8c3e 542e 833e b5de cabe
000001e0: e038 82be 014e 9fbe 13fa 01bf 6572 e4bd
000001f0: 6be5 cebe be6c 93bd 1444 873e f081 39bd
00000200: 9bc7 be3e dff7 32bf 9961 e73d 7178 7cbe
00000210: 3337 99be f2aa abbd 6677 66bf fb14 ff3d
00000220: a9e9 7d3d 1db4 bbbd 25e3 50be 1614 92bd
00000230: 58e8 6bbe 3287 ccbd bdae b7be d08f b6bd
00000240: c896 423d 93fc 22bd fea7 a13d 8b83 043e
00000250: 9920 bb3e 7137 8f3e e8be 063f 1339 4f3e
00000260: 2459 54be e477 75bd 157c 7ebb 3188 2f3e
00000270: beff a33e c8af 8a3e f6aa ef3e f0b9 683e
00000280: abd1 0bbf f938 70bc 7c34 a1be ab25 8d3d
00000290: f807 dfbd a5a6 253e 47b7 573d b7c4 723e
000002a0: 4851 bb3d 87cb 0fbe 2594 3cbe 6df3 3e3f
000002b0: 8f64 b23c 7423 503e f3e6 123f 7746 c1be
000002c0: 76ae 7d3f 0550 11bf 9444 72bf 9f78 723c
000002d0: 20ce c5be 5086 1b3d 828e 85be 0fa3 1b3e
000002e0: c017 c9bd 7c50 a53d 6c9c 69bf a605 21be
000002f0: c3e8 cfbe 4ec4 ebbc ce63 db3c 1a3d f6bc
00000300: 6c36 5e3e e3fb b2bd a0a1 c7be cdf8 3bbe
00000310: 5897 1a3e e2b4 b0bd 5e66 d33e 3b82 1abd
00000320: 77bd fc3e 6710 a83c 6ede aa3e 6d42 99be
00000330: 2037 193f 5888 d5bd cb81 343f b232 23be
00000340: 0506 493f 40ab 03be a8da 453e 10ad be3c
00000350: 1c97 483f 24e0 80bf 381e 0f3f 90d8 5ebe
00000360: 960f c93e ae85 85be 480c 253e 73d2 41be
00000370: f23c 2f3f d176 f63d 5a31 1f3f 0335 ca3c
00000380: f75f ed3e 4345 e33b 8262 cb3e 1636 65bb
00000390: 9497 f63e 702b 123e ecf9 1e3f cf88 b03d
000003a0: cce6 1a3f 159f 8f3d 18d0 f33e 97b0 84bc
000003b0: a455 21be 5361 253e 34cf b3bd 44c5 183d
000003c0: 75c1 9bbe 4e3b 19bf 4bde e1be 9210 9cbf
000003d0: fcdf debe 413a a83d 8808 10bf 0660 05bd
000003e0: 6348 c4be b1bc 8abe aa20 6cbe 55c9 13bf
000003f0: 7c28 da3d 84af 703e f707 0a3f 2a87 3e3f
0.02821654 0.0096233785 -0.25791106 0.15797958 -0.23134422 0.24683148 -0.03768113 0.23582181
0.16623576 0.29537633 0.08991837 0.07674797 0.055275846 0.10602621 -0.11514918 0.06026224
-0.26470178 0.07010304 0.4185538 0.1184329 0.2342841 0.029693294 0.015423503 0.09832217
-0.22808215 -0.013820584 0.41800377 0.09895736 0.07440253 0.059499953 -0.42357752 -0.18352878
-0.73154753 -1.1270933 0.17192878 0.13752472 0.016758561 0.070230186 -0.40478805 -0.09688456
-0.7782689 -0.38235182 0.1841521 -0.10199958 0.056814253 -0.3617078 -0.029034121 0.18013099
-0.08018223 0.2508402 -0.19751753 0.3049877 0.033097386 0.20994982 0.035546627 0.15632905
0.03834842 0.07895609 -0.08821368 0.042018097 -0.039298065 0.20480083 0.043088626 0.15882386
-0.22662811 0.03206807 -0.30803803 -1.7848103 -0.22246522 0.26553676 -0.029162198 0.17550276
-0.007640995 0.13142714 0.018175472 0.04004263 -0.025961982 0.26745978 0.032540258 0.19047338
0.13606302 0.18910244 0.15513904 0.134345 -0.037070423 -0.17986442 -0.98185533 0.69231254
-0.3213268 -0.035855886 -0.19927655 -0.41015068 -0.23436245 -0.5669565 0.07859764 -0.1727822
-0.059596114 0.056275718 0.067275204 0.22799067 0.12009859 0.2929247 0.17969398 -0.16046096
-0.07155023 -0.13553394 -0.029861476 0.0993192 0.015812509 0.10258523 0.34160995 -0.2943565
-0.105762824 -0.2608369 -0.23734742 -0.04898872 -0.28153807 0.27453145 0.25621283 -0.39623037
-0.25434017 -0.311142 -0.5077221 -0.111546315 -0.40409407 -0.07198475 0.26419127 -0.045289934
0.37261662 -0.6990947 0.11297912 -0.2465532 -0.29924926 -0.083822146 -0.9002594 0.124551736
0.061990414 -0.09165213 -0.20399149 -0.07132737 -0.23037851 -0.09986724 -0.35875502 -0.08914149
0.047507077 -0.039791655 0.0789337 0.12940805 0.36548308 0.27971986 0.5263505 0.20236616
-0.2073713 -0.05992879 -0.0038831283 0.17141797 0.32031053 0.27087235 0.4681012 0.2272718
-0.546168 -0.014662021 -0.31485355 0.0689195 -0.10890192 0.16176851 0.05266502 0.23707853
0.091463625 -0.14042483 -0.18415888 0.7459019 0.021776466 0.20326024 0.5738365 -0.37749073
0.9909433 -0.56762725 -0.9463589 0.014799266 -0.38633823 0.037969887 -0.26085287 0.1519892
-0.09818983 0.08071992 -0.91254306 -0.15724811 -0.4060727 -0.028780129 0.026780989 -0.030058432
0.21700448 -0.0873945 -0.38990498 -0.18356629 0.15096796 -0.08628251 0.41289037 -0.037721854
0.493633 0.020515634 0.33372825 -0.2993349 0.5984974 -0.10426396 0.7051055 -0.15937307
0.7852481 -0.12858295 0.19321692 0.023275882 0.78355575 -1.0068402 0.55905485 -0.217623
0.39269704 -0.26078552 0.16117966 -0.18927936 0.6845237 0.12034381 0.6218468 0.024683481
0.46362278 0.006935747 0.39723593 -0.0034974865 0.4816252 0.14274383 0.621001 0.08619844
0.6050842 0.07012764 0.476197 -0.016197486 -0.15755326 0.16150407 -0.08779755 0.037297502
-0.30421034 -0.59856117 -0.4411491 -1.2192557 -0.43530262 0.08214236 -0.5626302 -0.03256228
-0.38336477 -0.27097085 -0.23059335 -0.57729083 0.10652253 0.23504454 0.53918403 0.74424994
