model/keypoint_classifier/keypoint_classifier.tflite (tflite, 7020 bytes, 6 tensors)

arith.constant f4 [15, 10]
0.87730294 -1.0143995 0.14558737 0.5059337 -0.72966653 -0.015263449 -0.6246141 -0.29765445
-0.62903017 0.29207632 0.8483084 0.25304547 0.23592663 0.3969195 -0.9088424 -0.5461675
-0.9549589 -0.026240258 -0.7286255 0.3780029 0.37142843 0.69390976 -0.458103 -0.61163104
-0.48912194 0.65852726 -1.6620469 -0.9672499 -0.431697 0.43435448 0.016562771 0.34569705
-0.47190395 0.5239943 0.3988852 -0.048642293 0.34221727 -0.011383922 -1.0478287 -0.088598035
0.33824885 0.6189257 -0.9700466 -0.32489452 -0.34890667 0.90543264 -0.053940907 -0.7143966
-0.8044842 -0.37689775 0.023435215 -1.0234232 -0.5878407 -0.969854 -0.22808757 -0.81696373
0.2698004 1.1184933 0.6378216 -0.27426577 -0.63759935 0.8922342 -0.83523107 0.13418597
-0.04658797 -1.0934942 0.33556986 -0.50782025 0.3527884 -0.19359772 -0.18828443 0.13905185
0.32156196 -0.46458438 -0.05990394 -1.0010432 0.7964132 0.46136248 -0.4601043 -0.60075444
-0.9602218 -1.976493 -0.25417292 1.0201944 -0.6039995 -1.3152887 -0.68442 -0.8178398
0.58623403 -0.21998547 -0.42116073 -0.26881707 -0.68933785 -0.7745827 -0.080268316 -0.93484956
0.36274046 -0.11458234 0.5618176 -0.18163581 1.0815276 0.2655569 0.8792616 -0.74174213
-0.024831291 -0.66807866 -0.8593317 -0.61330694 -0.6393695 -1.2866576 -0.490846 -0.17824714
0.5407391 -0.07106341 -0.6881172 0.8890605 -0.5145755 0.64207584 0.48832753 -1.011156
-0.078051105 -0.16767675 -0.07852683 -0.3750002 0.7215577 -0.95347184 0.6926184 0.7289288
-0.26609442 -0.13590209 0.19513753 0.26760843 -0.026591303 0.035992835 -0.8750197 -0.6815822
0.19707146 -0.23462342 -0.55001646 0.64380264 -1.2845818 0.6802247 -0.03550392 0.32425264
-0.97739387 -1.2506326 -1.0131072 -0.87796074 0.28112262 0.58039474
00000000: ed96 603f d8d7 81bf db14 153e df84 013f
00000010: 6dcb 3abf 8c13 7abc b6e6 1fbf 2a66 98be
00000020: 1f08 21bf 078b 953e bd2a 593f 2d8f 813e
00000030: c096 713e 0839 cb3e e5a9 68bf a2d1 0bbf
00000040: 3078 74bf cff5 d6bc 3387 3abf 9989 c13e
00000050: de2b be3e 12a4 313f 7a8c eabe da93 1cbf
00000060: 316e fabe 3e95 283f f4bd d4bf b09d 77bf
00000070: 6407 ddbe b663 de3e a6ae 873c 34ff b03e
00000080: 659d f1be 7e24 063f ae3a cc3e 243d 47bd
00000090: 1a37 af3e a183 3abc 401f 86bf e372 b5bd
000000a0: f42e ad3e ea71 1e3f f954 78bf 9358 a6be
000000b0: e5a3 b2be 6fca 673f 24f1 5cbd b2e2 36bf
000000c0: adf2 4dbf bef8 c0be 35fb bf3c 88ff 82bf
000000d0: ba7c 16bf 5a48 78bf ca8f 69be 8924 51bf
000000e0: 4723 8a3e ca2a 8f3f 4748 233f 906c 8cbe
000000f0: b639 23bf 7669 643f b4d1 55bf 0c68 093e
00000100: 07d3 3ebd 9ef7 8bbf d0cf ab3e 8200 02bf
00000110: aea0 b43e 7b3e 46be a2cd 40be 9c63 0e3e
00000120: c5a3 a43e 01de edbe d55d 75bd 2f22 80bf
00000130: bce1 4b3f b437 ec3e ca92 ebbe 0bcb 19bf
00000140: 19d1 75bf b9fd fcbf f422 82be bb95 823f
00000150: b69f 1abf 615b a8bf 2636 2fbf f35d 51bf
00000160: 6f13 163f df43 61be 61a2 d7be 64a2 89be
00000170: 7278 30bf 0d4b 46bf b763 a4bd 4d52 6fbf
00000180: 1eb9 b93e 25aa eabd 47d3 0f3f bdfe 39be
00000190: 7f6f 8a3f 13f7 873e 4a17 613f d0e2 3dbf
000001a0: fe6a cbbc 3407 2bbf 2afd 5bbf af01 1dbf
000001b0: b8ad 23bf 32b1 a4bf 2b50 fbbe 6b86 36be
000001c0: e16d 0a3f b189 91bd 7328 30bf 7899 633f
000001d0: 38bb 03bf 155f 243f 1106 fa3e 8f6d 81bf
000001e0: 42d9 9fbd 74b3 2bbe add2 a0bd 0700 c0be
000001f0: 01b8 383f bb16 74bf 714f 313f 149b 3a3f
00000200: 873d 88be eb29 0bbe 22d2 473e f903 893e
00000210: 01d6 d9bc 396d 133d 4b01 60bf 2c7c 2ebf
00000220: 1acd 493e 1f41 70be e1cd 0cbf 40d0 243f
00000230: 2d6d a4bf 3523 2e3f 8f6c 11bd 7104 a63e
00000240: 7c36 7abf bb14 a0bf 7fad 81bf 09c2 60bf
00000250: 4eef 8f3e c094 143f

arith.constant1 f4 [10, 20]
-1.9413655 0.47574252 0.7442911 -0.7351797 0.32855403 -1.3238013 0.32441804 -0.74108183
-0.4478298 0.23587668 0.6017957 0.42536476 -0.16098182 0.010361254 -0.44723344 -0.17148924
0.47262186 0.8744885 -0.09079783 0.13404872 -0.09082852 -0.13189748 0.5208526 0.14654987
-0.023568882 0.044999994 0.40260044 0.032793734 0.08043462 0.20700604 -0.7565669 1.4849138
0.9288119 0.15943684 0.20681468 -0.78910893 0.5051863 0.49097788 0.22147459 2.136327
0.19469456 0.47172216 0.5510035 0.15178433 0.5359535 0.30460784 0.23900725 0.43887907
-0.73585784 0.27367163 0.85090184 0.49705568 0.06887445 0.69941145 -0.6450038 1.0132482
-0.100564174 -0.05271982 -0.6921486 0.58175474 -0.34393907 0.5376685 0.14025812 0.16401331
-0.7601975 0.24316521 0.7485012 0.16771774 -0.20557563 0.24318807 0.060204618 -0.1746737
-0.46180633 -0.057600528 -0.42611128 0.22554219 -0.08490476 0.4652464 -0.5028241 0.7873601
0.26763028 -0.04725473 0.22163199 -0.7602888 0.371502 -0.5206731 -0.02693715 -0.15676492
-0.28465194 -0.8762162 0.28802592 0.13358289 0.057647496 0.61036974 -0.025440656 0.90744036
-0.41069728 -0.34517497 0.12211564 -0.1220417 -1.8586205 -0.23988713 0.8096334 -0.30523157
-1.5774947 -1.13814 1.0987711 -1.2124436 0.3515391 -1.2601274 -0.6362666 -0.09000415
1.7428391 -1.2470253 0.45336378 -1.2905914 -0.9254646 0.45482096 0.22646624 0.45071626
1.2331741 0.63473207 0.70292914 0.25674897 0.6756551 0.758667 0.11647625 0.6725995
-0.3495396 0.19974935 0.03304378 0.558068 -0.075212024 0.3475517 2.0263944 -0.4539347
0.27999187 1.4946364 1.8866873 0.12608074 0.21345934 0.6720676 0.7859342 0.039553624
0.011560338 0.23145841 -0.1371083 0.12609765 -0.026605204 0.40222046 0.78416026 -0.18964115
-0.731314 0.21810555 0.34138384 0.5428006 0.8198897 0.2655416 -0.14706187 -0.26206422
0.7661361 0.5515263 -0.21551879 1.7529839 0.6135315 0.9073805 0.42559355 0.84715617
1.3595818 1.2119527 0.021912448 -0.58048326 0.5123921 -0.4329914 -0.02326174 0.3852048
0.5936394 0.1318073 -0.32561812 -0.27413493 -0.16705902 0.32763848 0.7241355 -0.17037353
-0.7635809 0.106064014 0.4178096 0.23446697 0.23151082 0.37645036 -0.20144278 0.16952789
-0.06083668 -1.3770599 -0.010064707 -0.91666394 1.1072825 0.3879601 0.07128078 0.37889433
00000000: aa7e f8bf 8694 f33e dd89 3e3f bd34 3cbf
00000010: 3c38 a83e 5272 a9bf 1f1a a63e 8ab7 3dbf
00000020: f349 e5be a889 713e 480f 1a3f 69c9 d93e
00000030: 6bd8 24be 40c2 293c c8fb e4be e09a 2fbe
00000040: 7efb f13e 7ade 5f3f 36f4 b9bd 1144 093e
00000050: 4e04 babd 2210 07be 9956 053f 2b11 163e
00000060: 8713 c1bc ea51 383d a521 ce3e b952 063d
00000070: e8ba a43d 64f9 533e 5eae 41bf a811 be3f
00000080: 9ec6 6d3f 6943 233e 3ac7 533e 0b03 4abf
00000090: e453 013f 7461 fb3e 3cca 623e 95b9 0840
000000a0: 035e 473e 9185 f13e 910e 0d3f 5a6d 1b3e
000000b0: 4034 093f 8ff5 9b3e 51be 743e c2b4 e03e
000000c0: 2e61 3cbf b01e 8c3e b4d4 593f 157e fe3e
000000d0: 0c0e 8d3d a10c 333f f81e 25bf 1eb2 813f
000000e0: 97f4 cdbd bdf0 57bd a730 31bf e1ed 143f
000000f0: c818 b0be a5a4 093f d39f 0f3e 1bf3 273e
00000100: 4e9c 42bf 4d00 793e c69d 3f3f 33be 2b3e
00000110: 6b82 52be 4b06 793e 1e99 763d aadd 32be
00000120: e171 ecbe 88ee 6bbd 422b dabe 88f4 663e
00000130: 8ce2 adbd c734 ee3e 15b9 00bf 6e90 493f
00000140: d606 893e 2d8e 41bd 7ff3 623e 49a2 42bf
00000150: 8335 be3e d54a 05bf 4cab dcbc fc86 20be
00000160: e6bd 91be b44f 60bf 2278 933e f4c9 083e
00000170: c81f 6c3d 3141 1c3f ec68 d0bc 034e 683f
00000180: ea46 d2be c6ba b0be c417 fa3d 00f1 f9bd
00000190: 47e7 edbf f9a4 75be 2244 4f3f 5047 9cbe
000001a0: 59eb c9bf 92ae 91bf 88a4 8c3f 5a31 9bbf
000001b0: effc b33e db4b a1bf 5ee2 22bf 1954 b8bd
000001c0: 5a15 df3f 869e 9fbf 4c1f e83e 1932 a5bf
000001d0: 3feb 6cbf 4bde e83e c4e6 673e 48c4 e63e
000001e0: a6d8 9d3f cd7d 223f 2af3 333f 9a74 833e
000001f0: bcf7 2c3f 0038 423f 1a8b ee3d 7b2f 2c3f
00000200: dbf6 b2be 188b 4c3e ea58 073d 8bdd 0e3f
00000210: c308 9abd 4cf2 b13e 72b0 0140 216a e8be
00000220: 185b 8f3e 3f50 bf3f f87e f13f 4f1b 013e
00000230: 1695 5a3e 9f0c 2c3f fc32 493f fb02 223d
00000240: 9267 3d3c 6f03 6d3e 1e66 0cbe be1f 013e
00000250: 28f3 d9bc d7ef cd3e babe 483f 4a31 42be
00000260: 6537 3bbf 1057 5f3e ddc9 ae3e fbf4 0a3f
00000270: 4be4 513f 12f5 873e 6397 16be 482d 86be
00000280: 7f21 443f d430 0d3f f5b0 5cbe c761 e03f
00000290: 6610 1d3f 174a 683f 66e7 d93e 3adf 583f
000002a0: c706 ae3f 4421 9b3f bc81 b33c 8d9a 14bf
000002b0: 212c 033f 0cb1 ddbe 688f bebc 9039 c53e
000002c0: c0f8 173f 7ef8 063e 6bb7 a6be 6a5b 8cbe
000002d0: 8511 2bbe 3bc0 a73e f260 393f 6676 2ebe
000002e0: 0a7a 43bf 1738 d93d 24eb d53e 1c18 703e
000002f0: 2c11 6d3e 1abe c03e 0447 4ebe b898 2d3e
00000300: e22f 79bd 8043 b0bf 71e6 24bc 7daa 6abf
00000310: 6fbb 8d3f b5a2 c63e a8fb 913d 70fe c13e

arith.constant2 f4 [15]
0.30965477 -0.36274645 0.24740182 0.06302862 -0.18784004 -0.688039 -0.48712814 -0.5809698
1.1169424 0.3140226 0.9187526 -0.35333654 -0.2885025 -0.22051322 0.5469104
00000000: 128b 9e3e e7b9 b9be e756 7d3e 2615 813d
00000010: 2459 40be 5323 30bf dc68 f9be 70ba 14bf
00000020: f8f7 8e3f 92c7 a03e 5f33 6b3f 87e8 b4be
00000030: 9ab6 93be 38ce 61be 5202 0c3f

sequential_1/dense_1_2/Add/ReadVariableOp f4 [10]
1.2428249 0.11932634 0.90768945 1.34659 0.24546406 1.1436348 -0.7152497 -1.129823
0.7766321 1.1559541
00000000: e314 9f3f 5e61 f43d 565e 683f 105d ac3f
00000010: ee5a 7b3e a062 923f 9b1a 37bf 0a9e 90bf
00000020: 5cd1 463f 4ef6 933f

sequential_1/dense_1/Add/ReadVariableOp f4 [20]
-1.2082279 -0.18773057 -0.59343123 0.61609834 -0.9000304 -0.7289702 0.5108027 -0.55867094
-0.0023155175 0.25520983 0.61559975 -0.22508697 -0.2667213 0.13715824 -1.3467101 0.82955295
-0.62927836 -0.6482601 -1.0784606 -0.30589762
00000000: 36a7 9abf 713c 40be 1ceb 17bf 9fb8 1d3f
00000010: 6468 66bf cb9d 3abf f7c3 023f 0f05 0fbf
00000020: f0bf 17bb ddaa 823e f297 1d3f 337d 66be
00000030: b28f 88be 3673 0c3e ff60 acbf 955d 543f
00000040: 6318 21bf 60f4 25bf ff0a 8abf 9d9e 9cbe

sequential_1/dense_1/MatMul f4 [20, 42]
0.2082994 0.14370063 -1.0219893 0.94272006 -0.41480476 0.13430224 -0.46263483 -0.23878805
-0.24740316 -0.2215602 -0.02690292 -0.14086582 -0.14397673 -0.0076126666 -0.0631769 0.25612044
0.046859883 0.32428738 0.10472502 -0.22999264 -0.09763507 -0.119538456 -0.098491825 0.09171487
-0.013064223 0.0067486987 0.17982325 -0.19593495 -0.09333434 -0.18621512 -0.2631381 -0.09762274
-0.16795388 -0.20018663 0.30224022 -0.32421306 0.010471045 -0.24307518 -0.13698637 -0.3111264
-0.13229255 -0.11615435 0.095611006 0.19406259 -0.056216724 -0.6387553 -0.19596004 -0.5587209
-0.9517948 -0.50993127 -1.6924399 -0.46573222 0.7593457 -0.120858975 0.4229053 -0.04471172
0.2613216 -0.039399892 0.17105366 -0.07432337 0.4884607 -0.23056726 0.35631838 0.1715273
0.5877347 0.35025832 0.6301017 0.13696712 0.12873854 -0.26928535 0.025550375 -0.017502261
0.002951225 0.13753751 -0.022752775 0.12406636 -0.2810545 -0.62905437 -0.34811786 -0.16400431
-0.10086434 -0.03502221 -0.04450566 0.14724046 -0.28638095 0.28644967 0.2641193 -1.0192106
0.05350349 -0.461166 -0.3475848 -0.15093508 -0.7424129 -0.27232656 0.83051604 0.07131894
0.6347066 0.040791955 0.41854727 0.07628064 0.4100534 0.1016154 1.2591146 0.085557595
0.58798534 -0.062266402 0.14281532 -0.32974726 -0.20723061 -0.29048765 0.64889526 0.10762475
-0.18388802 -0.124823555 -0.6684028 -0.16949248 -0.5814601 -0.11432006 -0.23264067 0.04723613
-0.5443963 -0.06947161 -0.7824955 -0.118764274 -0.71371436 -0.042187363 0.24759305 0.29261088
-0.34006712 1.4033437 -0.112292156 0.6800612 0.24352199 0.43043444 0.44938147 0.39176062
-0.5756403 -0.06274988 -0.7461318 -0.050089326 -0.56232715 -0.08484047 -0.23386139 -0.10845349
-0.7541849 -0.14276242 0.13550241 0.082407154 0.43635985 0.23218344 0.72566813 0.1338103
-0.23317882 -0.18539938 0.47051752 -0.067127325 0.5077 -0.09848817 0.52172965 -0.10732065
0.4480581 -0.21268028 0.8297643 -0.16635248 0.88551635 -0.22863209 0.8481851 -0.34106016
0.22775328 0.2236253 -0.9993577 1.0325766 -0.8036577 0.014743813 -0.8253417 0.2593169
-0.8872014 0.3115061 -0.332466 -0.26572025 -0.174332 0.0038222936 0.042371403 0.3110491
0.20134942 0.3956481 -0.38636765 -0.12722641 -0.21718535 -0.20664129 -0.12635945 0.20984921
-0.0033955066 0.16644853 -0.2589723 -0.11805166 -0.339691 -0.22917417 -0.37287956 0.0140854865
-0.2212846 0.19025707 -0.2729909 -0.10669659 -0.09620192 -0.13939121 -0.2678525 -0.08626808
-0.12251302 0.18038002 0.18117979 0.010984004 -0.53238124 0.18778087 -0.5309929 0.07503888
-0.7360233 -0.089966185 -0.7615475 0.052955814 -0.46223462 -0.039417066 -0.078899525 -0.043824024
-0.22340696 -0.014612208 -0.22460903 -0.04133707 -0.13071448 0.04096339 0.27395892 -0.0039273393
0.18759218 0.019197192 0.15864512 -0.13261 0.29502502 0.0255889 0.31690904 0.06230867
0.14056371 -0.17512862 0.1161462 -0.8496758 0.6901754 0.083085015 0.6962729 -0.07083376
0.63165313 -0.3214759 0.4773432 -0.5291464 -0.18145162 0.19545776 0.8692481 0.2828365
00000000: 704c 553e 4226 133e 8cd0 82bf 1a56 713f
00000010: 4a61 d4be 8786 093e 79de ecbe db84 74be
00000020: 4157 7dbe ade0 62be 8363 dcbc 213f 10be
00000030: a36e 13be ad73 f9bb e462 81bd 3822 833e
00000040: 26f0 3f3d ff08 a63e 127a d63d 3183 6bbe
00000050: e5f4 c7bd 94d0 f4bd 15b6 c9bd 01d5 bb3d
00000060: 530b 56bc 3024 dd3b 9623 383e 2ca3 48be
00000070: 1326 bfbd 2daf 3ebe 09ba 86be 6eee c7bd
00000080: 1afc 2bbe b9fd 4cbe 3bbf 9a3e 41ff a5be
00000090: bf8e 2b3c b3e8 78be 2846 0cbe f64b 9fbe
000000a0: b377 07be 55e2 edbd b4cf c33d 58b8 463e
000000b0: 8243 66bd 7885 23bf c0a9 48be 5508 0fbf
000000c0: d3a8 73bf db8a 02bf dfa1 d8bf 7474 eebe
000000d0: 7b64 423f e984 f7bd 0b87 d83e a323 37bd
000000e0: f2cb 853e c861 21bd b128 2f3e da36 98bd
000000f0: 8517 fa3e d319 6cbe 5d6f b63e daa4 2f3e
00000100: c875 163f 0f55 b33e 584e 213f 1c41 0c3e
00000110: 09d4 033e c5df 89be 054f d13c e760 8fbc
00000120: 5769 413b a2d6 0c3e 0764 babc 8116 fe3d
00000130: 60e6 8fbe b509 21bf 813c b2be bff0 27be
00000140: f791 cebd 7373 0fbd 914b 36bd 34c6 163e
00000150: 86a0 92be 88a9 923e a53a 873e 7e75 82bf
00000160: 7a26 5b3d f31d ecbe a3f6 b1be ba8e 1abe
00000170: c60e 3ebf 636e 8bbe b39c 543f aa0f 923d
00000180: 227c 223f 7715 273d d44b d63e 0639 9c3d
00000190: 85f2 d13e bc1b d03d ab2a a13f d238 af3d
000001a0: 3586 163f 0e0b 7fbd 2e3e 123e a2d4 a8be
000001b0: 4334 54be ccba 94be 001e 263f 5d6a dc3d
000001c0: 244d 3cbe 7ea3 ffbd 721c 2bbf 708f 2dbe
000001d0: 92da 14bf a320 eabd 5b39 6ebe ac7a 413d
000001e0: 8e5d 0bbf 2247 8ebd a051 48bf af3a f3bd
000001f0: fcb5 36bf a8cc 2cbd 0889 7d3e 18d1 953e
00000200: 471d aebe c4a0 b33f 6ef9 e5bd 7e18 2e3f
00000210: d45d 793e e761 dc3e 5415 e63e d994 c83e
00000220: 2a5d 13bf 0283 80bd 7e02 3fbf 772a 4dbd
00000230: acf4 0fbf d7c0 adbd 5c79 6fbe dd1c debd
00000240: 4312 41bf 5030 12be 25c1 0a3e 15c5 a83d
00000250: 8f6a df3e 7fc1 6d3e 63c5 393f 9105 093e
00000260: 6ec6 6ebe 56d9 3dbe ace7 f03e 0d7a 89bd
00000270: a1f8 013f 2ab4 c9bd 1390 053f eeca dbbd
00000280: df67 e53e dcc8 59be 6f6b 543f 4e58 2abe
00000290: 33b1 623f 881e 6abe a922 593f 709f aebe
000002a0: 2838 693e 08fe 643e e8d5 7fbf 782b 843f
000002b0: 83bc 4dbf 0990 713c 9849 53bf 2fc5 843e
000002c0: a21f 63bf ba7d 9f3e fc38 aabe 7c0c 88be
000002d0: 1684 32be 727f 7a3b a38d 2d3d d441 9f3e
000002e0: 8b2e 4e3e 6392 ca3e fbd1 c5be a447 02be
000002f0: d665 5ebe c699 53be 5f64 01be b6e2 563e
00000300: 2687 5ebb 7c71 2a3e 0498 84be 12c5 f1bd
00000310: fbeb adbe a2ac 6abe 12ea bebe d0c6 663c
00000320: 6e98 62be c0d2 423e 77c5 8bbe be83 dabd
00000330: 8305 c5bd 92bc 0ebe f623 89be 52ad b0bd
00000340: 1be8 fabd 8ab5 383e 3287 393e 40f6 333c
00000350: 234a 08bf a149 403e 27ef 07bf fcad 993d
00000360: 066c 3cbf 3140 b8bd c7f4 42bf 32e8 583d
00000370: 04aa ecbe ca73 21bd 1396 a1bd d280 33bd
00000380: cbc4 64be 0b68 6fbc e9ff 65be 0f51 29bd
00000390: 04da 05be 3ac9 273d 5844 8c3e e9b0 80bb
000003a0: 2a18 403e 6e43 9d3c de73 223e eaca 07be
000003b0: 850d 973e d09f d13c e741 a23e 6037 7f3d
000003c0: efef 0f3e eb54 33be 0fde ed3d 5a84 59bf
000003d0: 56af 303f 7a28 aa3d f13e 323f 4a11 91bd
000003e0: 05b4 213f 7d98 a4be 5466 f43e 2376 07bf
000003f0: 74ce 39be 1426 483e 0b87 5e3f f2cf 903e
