model/keypoint_classifier/keypoint_classifier.tflite (tflite, 6652 bytes, 6 tensors)

arith.constant f4 [5, 10]
-0.6965187 -1.102265 0.4158317 -0.8065441 0.15820432 -0.006790822 0.9100967 0.707881
0.52993244 -0.5614179 -0.55724907 1.6343094 -0.23350258 0.77529204 0.44054273 1.1520175
-0.46825662 -0.88091165 0.8573956 0.5110292 0.16620098 -0.7508175 0.86971426 -0.39859822
0.24062026 -0.45741764 -0.90633476 -1.1591437 -0.45752764 0.8076768 -2.1716805 -0.74680406
-0.095709234 0.9776816 -2.5141313 -1.0484124 0.23688228 0.21973519 -0.03156827 -0.8846686
0.6955569 -0.28600082 -0.92779285 -0.37643823 -1.4011612 -0.75204074 0.86360174 -0.7742993
-1.7876855 0.09635725
00000000: 0d4f 32bf 0517 8dbf e5e7 d43e ad79 4ebf
00000010: 5000 223e 8b85 debb 19fc 683f b037 353f
00000020: a7a9 073f 15b9 0fbf e0a7 0ebf 0d31 d13f
00000030: 4d1b 6fbe 8a79 463f d18e e13e 4f75 933f
00000040: 55bf efbe 6d83 61bf 477e 5b3f cfd2 023f
00000050: 9730 2a3e 9335 40bf 98a5 5e3f 1115 ccbe
00000060: 2865 763e a532 eabe 8e05 68bf d25e 94bf
00000070: 1041 eabe e8c3 4e3f d0fc 0ac0 8d2e 3fbf
00000080: 3403 c4bd 5749 7a3f 87e7 20c0 6132 86bf
00000090: 4591 723e 4302 613e bb4d 01bd a479 62bf
000000a0: 0410 323f b36e 92be d583 6dbf 83bc c0be
000000b0: 4059 b3bf be85 40bf 0115 5d3f 7b38 46bf
000000c0: e1d2 e4bf f356 c53d

arith.constant1 f4 [10, 20]
0.07413781 -0.88474953 1.1613778 -0.15205896 -0.5137678 -0.035131466 0.120820165 -0.31662247
0.09026714 0.23218358 -0.26148644 0.2621223 -0.55743295 0.09029541 1.4693959 0.030084012
1.2078266 -0.36883798 -0.57554203 0.37052134 0.008826083 0.0018915164 -0.14677687 -0.052264486
-0.21906994 -0.010376089 0.06946281 -0.59294677 -0.043761045 1.0157473 0.466004 0.0043988274
-0.82999474 -0.03184519 -0.3829083 0.9558979 -0.40935263 0.0035697047 -0.09683996 -0.06446111
0.36131215 0.20280434 0.24075516 0.10846391 0.21810147 0.3281262 0.5583512 -0.0020044132
-1.4063576 0.48728004 0.08124032 0.18923485 0.43718842 -0.86753213 0.37275928 0.73034334
0.1360625 -0.6155056 0.5598641 0.118507504 -0.06632795 0.18237369 0.6781877 0.66149724
-0.7325658 0.087927125 -0.010262572 0.66041434 0.5113719 0.414494 -0.2153307 -0.11546951
0.4830116 0.6360978 -0.95398337 0.2350895 -0.64464265 0.70145607 -0.38014603 -0.055130456
0.6231531 0.32320845 -0.07807727 0.003421344 1.036353 0.49941763 0.67848134 1.3571607
0.013773639 0.4914658 1.4168385 0.91362786 1.072943 0.0127047105 0.5500336 0.8991302
0.5032233 -0.012947999 1.2715414 0.9063585 0.6872837 -0.12722856 0.32259655 0.035424296
0.7205932 0.021820365 -0.15252765 -0.27872768 0.023181327 0.2045626 0.17482738 -0.24964404
0.8789603 0.028523352 -0.84884065 -0.026106663 -0.6621728 -0.074984305 0.47596976 -0.052846722
0.592943 0.6188187 0.0076057073 0.31303623 0.13104966 -0.55024153 -0.84243983 -0.39553756
0.47096315 -0.10090487 -0.0003765463 0.08960215 -0.07581044 0.8675529 0.48265126 0.017963855
0.42595887 0.06254046 0.36464903 -0.2373889 0.5914368 0.49754828 -0.18439515 0.8904123
0.024799699 0.6640635 0.86985064 -0.012674598 0.5854247 -0.038150765 0.091808155 -0.0817102
-0.2439485 0.34340382 0.034741737 0.2805386 -0.024188682 0.2960374 -0.0061023063 -0.21149197
0.96591794 0.33826175 0.17735568 0.81369555 0.47169498 0.16778311 0.4637199 0.5963273
0.15008804 -0.46204934 0.9681084 0.19996713 0.3736448 0.16713569 0.21794692 -0.09418068
0.17415068 1.0039814 0.6693189 0.28714365 -0.20453799 -0.21201836 -0.46810892 -0.42116055
0.22971901 0.009702839 -0.055652965 0.18423419 -0.28733575 0.4616931 -0.7056871 -0.16522221
-0.72135997 -0.31104887 -0.03377997 0.10584686 -0.027486056 -0.3124556 0.018449955 1.1194959
00000000: 90d5 973d f27e 62bf 07a8 943f 58b5 1bbe
00000010: 4986 03bf 03e6 0fbd 9070 f73d 571c a2be
00000020: fadd b83d 88c1 6d3e 8de1 85be e534 863e
00000030: edb3 0ebf cdec b83d 2a15 bc3f bf72 f63c
00000040: 109a 9a3f 55d8 bcbe b956 13bf f9b4 bd3e
00000050: 469b 103c c2ec f73a ad4c 16be 4913 56bd
00000060: df53 60be 7900 2abc 8542 8e3d 5ccb 17bf
00000070: c83e 33bd 0204 823f 1498 ee3e 0a24 903b
00000080: 897a 54bf 1a70 02bd 8f0c c4be bab5 743f
00000090: ab96 d1be b5f1 693b 0754 c6bd 3004 84bd
000000a0: e8fd b83e f1ab 4f3e 8588 763e 5422 de3d
000000b0: fe55 5f3e 2800 a83e 1bf0 0e3f 795c 03bb
000000c0: 8703 b4bf c57c f93e 5361 a63d c8c6 413e
000000d0: 29d7 df3e 9616 5ebf 4eda be3e c8f7 3a3f
000000e0: f853 0b3e c691 1dbf 4153 0f3f 10b4 f23d
000000f0: f3d6 87bd 2bc0 3a3e b69d 2d3f e257 293f
00000100: 6f89 3bbf 2313 b43d 5924 28bc ea10 293f
00000110: 45e9 023f 8f38 d43e a77f 5cbe 477b ecbd
00000120: 4c4d f73e 4ed7 223f 4138 74bf 4dbb 703e
00000130: 4d07 25bf a092 333f 80a2 c2be 79d0 61bd
00000140: f686 1f3f 947b a53e fae6 9fbd a138 603b
00000150: 37a7 843f abb3 ff3e f4b0 2d3f 71b7 ad3f
00000160: d4aa 613c 68a1 fb3e f75a b53f 84e3 693f
00000170: 3256 893f 6b27 503c 01cf 0c3f 662d 663f
00000180: 3ed3 003f d823 54bc dec1 a23f 1c07 683f
00000190: d3f1 2f3f 3448 02be 602b a53e 1119 113d
000001a0: cc78 383f 9fc0 b23c 3530 1cbe 65b5 8ebe
000001b0: c4e6 bd3c dc78 513e f305 333e b0a2 7fbe
000001c0: 8b03 613f cea9 e93c 9f4d 59bf a4dd d5bc
000001d0: 2884 29bf 5f91 99bd 4fb2 f33e ce75 58bd
000001e0: 1dcb 173f e76a 1e3f 4c39 f93b 4946 a03e
000001f0: e231 063e a1dc 0cbf 23aa 57bf e683 cabe
00000200: 1522 f13e 36a7 cebd 306b c5b9 5581 b73d
00000210: 8142 9bbd f217 5e3f 111e f73e ef28 933c
00000220: 4817 da3e 3615 803d 47b3 ba3e 1316 73be
00000230: 6768 173f a6be fe3e 15d2 3cbe 0ff2 633f
00000240: bd28 cb3c 1100 2a3f 88ae 5e3f 1ea9 4fbc
00000250: 65de 153f fa43 1cbd ea05 bc3d ad57 a7bd
00000260: a3cd 79be a0d2 af3e 5a4d 0e3d c1a2 8f3e
00000270: 5827 c6bc 3792 973e dbf5 c7bb 5a91 58be
00000280: 6646 773f a530 ad3e ba9c 353e 5a4e 503f
00000290: 0182 f13e 56cf 2b3e b26c ed3e e8a8 183f
000002a0: aeb0 193e bb91 ecbe f4d5 773f 2fc4 4c3e
000002b0: 5f4e bf3e 9e25 2b3e 7a2d 5f3e cde1 c0bd
000002c0: 8e54 323e 7682 803f 7c58 2b3f 7e04 933e
000002d0: 6872 51be 571b 59be f9ab efbe 5ba2 d7be
000002e0: 763b 6b3e a8f8 1e3c 5df4 63bd e3a7 3c3e
000002f0: ac1d 93be 0a63 ec3e e9a7 34bf 0330 29be
00000300: 0cab 38bf cc41 9fbe de5c 0abd 3dc6 d83d
00000310: 702a e1bc 2efa 9fbe 5c24 973c a44b 8f3f

sequential_3_1/dense_10_1/Add/ReadVariableOp f4 [10]
0.5950521 -0.37738436 0.6636656 0.42600167 0.010039927 -0.22997321 0.37997985 -0.30725086
-0.29843304 0.5365922
00000000: 5655 183f 8638 c1be fde5 293f e41c da3e
00000010: 827e 243c 197e 6bbe b88c c23e fc4f 9dbe
00000020: 37cc 98be 1b5e 093f

sequential_3_1/dense_11_1/Add/ReadVariableOp f4 [5]
-0.25701565 -0.42749345 0.37082496 0.5127583 0.10088645
00000000: 8e97 83be 6ce0 dabe c5dc bd3e 2144 033f
00000010: 8e9d ce3d

sequential_3_1/dense_9_1/Add/ReadVariableOp f4 [20]
-0.49623096 -0.34948283 -0.62115145 -0.3453348 -0.75800824 0.19728437 -0.28117436 -0.6004128
-0.47454903 -0.82425183 -0.543246 0.24170637 -0.92193496 -0.5042877 -0.27086225 -0.651316
-0.14538513 -0.79908925 -0.48399556 -0.5807775
00000000: fc11 febe 6aef b2be c803 1fbf b9cf b0be
00000010: d40c 42bf ea04 4a3e 16f6 8fbe a7b4 19bf
00000020: 17f8 f2be 2b02 53bf 2b12 0bbf e081 773e
00000030: ee03 6cbf 0019 01bf 75ae 8abe a5bc 26bf
00000040: d7df 14be 1d91 4cbf 44ce f7be d6ad 14bf

sequential_3_1/dense_9_1/MatMul f4 [20, 42]
-0.024071187 -0.13994074 0.5803965 0.49759844 0.33549932 0.056249917 0.4697276 -0.009136998
0.7605439 -0.14069743 -0.23641978 -0.054653283 -0.071894586 -1.5349106e-05 0.025512904 -0.04069753
0.052612282 -0.015104745 -0.10785562 -0.080935664 -0.010042293 -0.032825638 -0.0035098842 0.0021642596
-0.048954174 0.06785054 0.035600718 -0.057128176 -0.06981859 0.006437062 -0.31318948 -0.028202357
-0.88227326 -0.08143456 0.33600727 0.036737815 -0.008624966 0.16380867 -0.45261285 0.16551301
-0.87374395 0.2075341 -0.05657497 0.28366148 0.2483118 0.20003897 -0.119897954 0.0375507
-0.3992237 -0.07781814 -0.75701934 -0.093399145 0.019489275 0.24419047 0.04409124 0.13226385
0.04527363 -0.012305088 0.0027301847 0.016790617 -0.040744476 0.2533588 -0.035418414 0.036593765
0.21123672 -0.14690778 0.3809367 -0.27019957 -0.17019558 0.2379385 0.014608814 -0.02392824
0.5486197 -0.20490652 0.67428005 -0.35356456 -0.21002974 0.26570985 -0.052408908 0.10393469
0.20514597 -0.021659676 0.47543624 0.20654565 -0.065710604 -0.23619203 -0.21205415 0.9153075
-0.16344805 0.12815203 0.3179063 -0.026514307 0.57059413 -0.3824203 -0.79167074 -0.17996266
-0.33383733 -0.17396258 -0.08877669 -0.142457 -0.097927645 -0.0619286 -0.98738307 -0.22344281
-0.0068044197 -0.20735449 0.24459693 -0.0246875 0.26690415 0.023768188 -0.773166 -0.36819568
0.0203366 -0.088147685 0.36415645 0.25478044 0.36836553 0.32291222 -0.31700522 -0.5928697
-0.16759953 -0.1810503 0.11067008 0.24851367 0.1832437 0.33715373 -0.12990506 -0.20546785
0.11986553 0.18441558 -0.10891887 0.16612777 -0.3374301 0.1985195 -0.32663473 0.13831387
0.08752093 0.094795935 0.06021133 0.02159111 0.060866207 0.07473055 0.049234934 0.026168
0.07730053 0.10202217 0.02131376 0.09214911 0.01955452 0.0576623 0.09907495 -0.068352826
0.020979032 0.06995498 -0.00513619 0.082296796 -0.0844812 -0.3018727 0.6901932 -0.86955065
-0.027763452 0.09469445 -0.034975328 0.069181554 -0.07261358 -0.20432368 0.09169944 -0.87731755
0.008047581 -0.0757485 0.5660225 -0.7909365 0.44468236 -0.570177 0.34891248 -0.35379642
0.30312926 -0.2410714 0.2015346 -0.14888357 0.06460198 -0.12190416 -0.0909926 0.017893162
-0.20011622 0.04980935 0.12358157 -0.106196456 0.18745889 -0.11978522 0.0054078363 -0.03128414
-0.0720043 -0.012476748 0.054618903 -0.0065235035 0.08770284 -0.17670718 0.048442177 -0.026799697
0.21670283 -0.05961213 0.06543875 -0.07906527 0.21259958 -0.094248936 -0.020234365 0.0001769975
-0.019875374 -0.03056495 -0.30304727 -0.2618261 -0.08905444 -0.14907463 -0.07985641 -0.14156264
-0.27224854 -0.11238105 -0.6526055 -0.10970959 -0.2130225 0.086696036 -0.043272533 -0.008018773
0.23205258 -0.081578985 0.3187529 -0.08293748 -0.5018603 0.018097013 -0.3149015 0.102795035
0.09971446 0.17034347 0.2785476 0.15541188 -0.46307302 0.082716145 -0.1300905 0.0014128558
0.71970433 0.019958433 1.1509058 0.035213053 -0.36557505 0.117439866 -0.17990917 0.09549389
0.53411806 0.010592613 1.0149796 -0.051150925 0.27606595 -0.13779859 -0.054292675 0.16693781
00000000: f030 c5bc a04c 0fbe dd94 143f 39c5 fe3e
00000010: 91c6 ab3e 5066 663d 2380 f03e 59b3 15bc
00000020: 01b3 423f fd12 10be 0718 72be 1fdc 5fbd
00000030: 783d 93bd f4c1 80b7 7000 d13c 74b2 26bd
00000040: fa7f 573d e479 77bc 68e3 dcbd 99c1 a5bd
00000050: 6e88 24bc 2d74 06bd 1606 66bb 40d6 0d3b
00000060: 2c84 48bd 39f5 8a3d 0fd2 113d 3cff 69bd
00000070: 0dfd 8ebd fded d23b 5f5a a0be a108 e7bc
00000080: a9dc 61bf 2ac7 a6bd 2509 ac3e 647a 163d
00000090: bb4f 0dbc 76bd 273e dfbc e7be 3e7c 293e
000000a0: afad 5fbf d283 543e 28bb 67bd 143c 913e
000000b0: 7345 7e3e 04d7 4c3e 0f8d f5bd c3ce 193d
000000c0: 0c67 ccbe 1e5f 9fbd 05cc 41bf 0d48 bfbd
000000d0: f9a7 9f3c 110d 7a3e 0499 343d 2d70 073e
000000e0: d870 393d 489b 49bc e6ec 323b 7a8c 893c
000000f0: aee3 26bd 3fb8 813e e612 11bd 58e3 153d
00000100: 704e 583e fe6e 16be 230a c33e 9957 8abe
00000110: c047 2ebe 26a6 733e cf59 6f3c 2805 c4bc
00000120: 5772 0c3f 04d3 51be 9e9d 2c3f 6a06 b5be
00000130: 0912 57be 1f0b 883e b9aa 56bd b6db d43d
00000140: c911 523e a26f b1bc 616c f33e b480 533e
00000150: 4893 86bd 53dc 71be b924 59be 9851 6a3f
00000160: ed5e 27be 493a 033e 9dc4 a23e 8834 d9bc
00000170: 7512 123f 98cc c3be efaa 4abf 2248 38be
00000180: baec aabe 3f23 32be 8ed0 b5bd 3fe0 11be
00000190: 4a8e c8bd d8a8 7dbd 23c5 7cbf 31ce 64be
000001a0: 9cf7 debb bc54 54be 9e77 7a3e 713d cabc
000001b0: a9a7 883e 81b5 c23c 35ee 45bf 2584 bcbe
000001c0: f198 a63c c686 b4bd b772 ba3e 9572 823e
000001d0: 689a bc3e c054 a53e 824e a2be 4fc6 17bf
000001e0: 369f 2bbe 4065 39be ffa6 e23d 5e7a 7e3e
000001f0: 3da4 3b3e 6a9f ac3e d505 05be 2a66 52be
00000200: 0f7c f53d 70d7 3c3e db10 dfbd 661d 2a3e
00000210: a3c3 acbe b248 4b3e ab3c a7be 27a2 0d3e
00000220: 2c3e b33d 5f24 c23d 28a0 763d d7df b03c
00000230: d84e 793d 550c 993d 92aa 493d 465e d63c
00000240: be4f 9e3d 00f1 d03d 329a ae3c acb8 bc3d
00000250: cd30 a03c 4e2f 6c3d cfe7 ca3d 91fc 8bbd
00000260: 38dc ab3c 8e44 8f3d 7c4d a8bb 398b a83d
00000270: 7b04 adbd 0f8f 9abe 80b0 303f df9a 5ebf
00000280: 2e70 e3bc 2aef c13d 4a42 0fbd 0faf 8d3d
00000290: 6eb6 94bd 3a3a 51be eacc bb3d e297 60bf
000002a0: 00da 033c 0822 9bbd dae6 103f d17a 4abf
000002b0: 68ad e33e 1ff7 11bf a8a4 b23e ce24 b5be
000002c0: c233 9b3e 6cdb 76be 165f 4e3e ef74 18be
000002d0: 0b4e 843d e3a8 f9bd 545a babd ae94 923c
000002e0: 44eb 4cbe e404 4c3d 5618 fd3d 877d d9bd
000002f0: 39f5 3f3e f451 f5bd 3834 b13b cc23 00bd
00000300: fe76 93bd 466b 4cbc 12b8 5f3d 1dc3 d5bb
00000310: 8c9d b33d baf2 34be 4e6b 463d 0a8b dbbc
00000320: 59e7 5d3e d92b 74bd c004 863d f9ec a1bd
00000330: b4b3 593e 9605 c1bd 8ac2 a5bc 6898 3939
00000340: aed1 a2bc 5963 fabc 0329 9bbe 120e 86be
00000350: 2d62 b6bd 05a7 18be c28b a3bd ccf5 10be
00000360: 2964 8bbe 0928 e6bd 2711 27bf 6caf e0bd
00000370: 9222 5abe b18d b13d 8a3e 31bd 2c61 03bc
00000380: 319f 6d3e e212 a7bd 9533 a33e 20db a9bd
00000390: eb79 00bf 3040 943c c53a a1be 3486 d23d
000003a0: 1837 cc3d 856e 2e3e cb9d 8e3e 4b24 1f3e
000003b0: e817 edbe 1567 a93d 7236 05be 932f b93a
000003c0: 8b3e 383f de7f a33c e250 933f 903b 103d
000003d0: a72c bbbe 5084 f03d 1c3a 38be 4d92 c33d
000003e0: f6bb 083f a48c 2d3c daea 813f a283 51bd
000003f0: 8458 8d3e 131b 0dbe ff61 5ebd bff1 2a3e
